pretrained_models/mnist_d4_l16.pt (torch, 864358 bytes, 6 tensors)

node_weights f4 [15, 784]
00000000: eebd 973b cae5 aabb ab34 f03c 826e 833b
00000010: 0b93 133d 4442 35bc 753f 8c3c 7138 973c
00000020: 3c6b 6e3c 84b6 093c 8af6 df3b 6cec 5a3c
00000030: ab6e f9bc 9114 aebb 6592 f7bc 1d58 8cbc
00000040: 1340 8cbb 7ef3 11bc 7349 a63c 35fd 203b
00000050: 3311 ecbc 9a5d 2ab9 cdee 163d 632b 053d
00000060: b35a af3c bfa9 dbbc 7ddc a3bc 5b79 113d
00000070: f962 98bc 63de 0c3d 0e17 c4bb 1452 573c
00000080: 06b3 c0bb 5b84 833a e089 b63b a031 083d
00000090: 72f9 813c d2e0 7fbc f861 5ebc 9f65 273b
000000a0: c90e f7bc d6a3 06bd 082c 8ebc 4253 f83c
000000b0: bc21 9b3c b2e8 a33c a4eb b2ba 26ca c1bb
000000c0: ff25 03bc a046 8abb 2c89 dcbc 3fbd 033d
000000d0: 7ed5 8c3b 1dfe a3bc e243 febc 3edd 2ebc
000000e0: 36c0 ffbc c6b2 65bc 2a4b 87bc d304 dabc
000000f0: 7a52 d5bb efb7 d43c d417 d93c aefb 6bbb
00000100: 540b e93b 66a6 0dbc fb03 36bc ab48 77bc
00000110: 9028 683c 7896 ba3c a7e7 4abb d580 e739
00000120: 1a0e d5bb 5691 aabc e037 06bd 20d6 783c
00000130: c300 44bb afa7 06bc 122b f43c 80fa 4936
00000140: fe80 78bc 8ff1 64bc 395f 0e3d 3196 003d
00000150: 1d64 003c 6589 143d ff29 2ebb a581 0a3d
00000160: fd32 8abc 93ae eb3c edbf 2e3c 5f72 4cbc
00000170: b0fe aebb 5540 e2bc 6a63 22bd 099e 06bd
00000180: aa68 f5bb 28b9 61bd 5756 6ebd 9203 64bd
00000190: be5a 94bd 3d72 7ebc 9807 2ebc d349 f3bc
000001a0: 2a24 483c 4c87 bb3c f1d9 2f3d 2ca4 64bc
000001b0: c533 0cbc eb75 fb3c 5024 6d3c 7408 763c
000001c0: 067b 1dbc 084d 133d 0ac1 32bc 8dfe 393b
000001d0: abbe f23c 79ec b9bc 533a 14bc 7199 6fbd
000001e0: 8261 febc 1f8c 97bb 688f 4ebd acad 3bbd
000001f0: 0feb 84bb 69d4 96bd b869 8dbc 30b8 2bbd
00000200: 4ef3 023a 9ffa 643c dc80 703c a761 0c3d
00000210: 49d9 e73c eb48 0f3c 1a67 173d aceb 483c
00000220: 4111 4e3d 54a2 a43c a504 82bc b27d 9fbc
00000230: 86a8 8b3b 461a 02bd 1e56 163d 9a7b 573b
00000240: f6d7 c63c 0c28 f8ba 1697 fcbc f9f8 3c3c
00000250: 9937 c5bb ac66 1c3b 11d1 e7bb 51fe 9e3c
00000260: d339 b43c 1698 26bd a7dc b0bc e582 28bd
00000270: 0a19 47bd 2380 d43b 4218 223a e672 80bc
00000280: d7f9 363d 43d8 37bc 9ab3 a43b 0e83 413c
00000290: cb7e 5d3d 1713 a83b 19ef 653c fdb6 1b3d
000002a0: 96a4 a13a 80a6 d7bc 319e aabc d2f9 e83b
000002b0: 1627 a8bc d76f 353d 2818 5b3c 28c3 5ebb
000002c0: 385f 7f3c e917 b7ba 9b6c 3d3b 43f2 093d
000002d0: 4709 9ebb 683b 3cbb 8f2e 2ebc 8f47 6ebc
000002e0: 9821 3ebc 836e 063c 03d2 cebb 43c4 69bc
000002f0: 4c16 27bc 5ce7 2cbb d3af a2bb 87e6 ba3c
00000300: 3362 52bc 19b0 fb3b 88a7 5dbc dcf7 45bb
00000310: 5fba cb3c 5b20 ae3c 34d5 853c 434c b4bc
00000320: ae3e ee3a be9e 44bc bd8d efbc 1412 52bc
00000330: 05d5 eb3c 1baa 62bc 222e 83bc 472b b4bc
00000340: 2bfc 05bd b8e8 6cbc d3c9 0abd 9f15 71bb
00000350: 3c2c 20bb 752a d9bc 9f1d 6c3b 161c a33c
00000360: 3967 183c 4c67 c9bb 32e7 4c3c d2ba b33c
00000370: 86f6 3dbd c6a1 8bbb b732 063d 9a2a 063d
00000380: e0c3 ffbc f9ee 123d 29bb 013c 9382 55bc
00000390: f23b 91b8 6e06 a4ba ebec 5e3d 8fa7 a73b
000003a0: 0215 4a3d 7c4e 61bc 2e4f a13c cd45 bebb
000003b0: 0da3 4ebc fc93 70bd a8d7 aabd be2c 97bc
000003c0: 24e3 69bc 33a6 00bd ff67 33bd 91e4 d53b
000003d0: e690 43bd 6ae0 4b3c 0e15 e0ba f07d e9bc
000003e0: 2c28 183d 7aaf 10bd b2f7 513b 6def 1dbb
000003f0: 95a2 ee3c 7e41 f0bc c8f7 9abc 6692 723c
0.0046307957 -0.0052153813 0.029321989 0.0040109763 0.036028903 -0.011063162 0.017120102 0.01845953
0.014551934 0.0084053315 0.0068348097 0.013362031 -0.030448278 -0.0053125103 -0.030221174 -0.01713186
-0.004280099 -0.008908151 0.020298695 0.0024564986 -0.028816795 -0.00016247333 0.036848832 0.03251208
0.021405553 -0.02681434 -0.020002598 0.035516124 -0.018601881 0.034391772 -0.0059841936 0.013142128
-0.0058807163 0.0010033952 0.005570635 0.03325045 0.015866015 -0.015617566 -0.013573162 0.0025542749
-0.030158417 -0.03287109 -0.01735498 0.030313138 0.018936984 0.020008419 -0.0013650549 -0.0059139905
-0.008004664 -0.004219845 -0.026920877 0.0321629 0.004297911 -0.020018632 -0.031038228 -0.010672865
-0.031219583 -0.014019674 -0.016515333 -0.026613628 -0.006510076 0.025966613 0.02650062 -0.0036008167
0.007111946 -0.0086456295 -0.011109347 -0.015093009 0.014169827 0.022776827 -0.003096083 0.0004415574
-0.006501925 -0.020821255 -0.03276813 0.01518777 -0.002990768 -0.00821869 0.029805694 3.0097144e-06
-0.015167473 -0.013973608 0.03475878 0.031393234 0.007836369 0.036263842 -0.0026575325 0.033815045
-0.016870016 0.028769767 0.010665876 -0.01247844 -0.0053404197 -0.027618567 -0.03964559 -0.032865558
-0.0074892836 -0.05510822 -0.05818781 -0.055667467 -0.0724387 -0.015530166 -0.010621928 -0.029698288
0.012215653 0.022891663 0.042932454 -0.013955157 -0.008557265 0.030695876 0.01447399 0.015016664
-0.009611851 0.035962135 -0.010910282 0.0028380484 0.029631933 -0.022695767 -0.009047109 -0.058495943
-0.031052355 -0.004624858 -0.05042973 -0.045819923 -0.0040563415 -0.07364733 -0.017262325 -0.0419237
0.00049953617 0.013975768 0.01467916 0.034272816 0.028301852 0.008745412 0.03696356 0.01226322
0.050309423 0.020096935 -0.015871355 -0.019469116 0.004262033 -0.031763338 0.03670322 0.0032880069
0.0242729 -0.0018932833 -0.030833762 0.011533969 -0.0060185906 0.0023864908 -0.007074483 0.019408377
0.022000229 -0.040672384 -0.02158959 -0.041140456 -0.048607863 0.0064850016 0.0006183424 -0.015679788
0.04467186 -0.011220994 0.005026293 0.011811031 0.054075997 0.005129229 0.014034056 0.038016308
0.0012332376 -0.02632451 -0.020827385 0.007109859 -0.02052645 0.044296112 0.0133724585 -0.0033990834
0.015586667 -0.0013968918 0.0028903845 0.033678304 -0.0048228833 -0.0028721932 -0.010631218 -0.014543428
-0.011604689 0.008205059 -0.0063116564 -0.014267984 -0.010198187 -0.0026383018 -0.0049648075 0.022815002
-0.012840795 0.0076809046 -0.013528712 -0.003020755 0.024869142 0.021255663 0.016337015 -0.02200902
0.0018176639 -0.012000738 -0.02924239 -0.012821693 0.028788099 -0.013834502 -0.016013209 -0.021993292
-0.03271119 -0.014459781 -0.03388388 -0.0036786569 -0.0024440428 -0.026509503 0.0036028398 0.019910853
0.009301954 -0.006146347 0.012506293 0.021939669 -0.04637768 -0.0042612283 0.03276321 0.03275547
-0.03122133 0.035872433 0.007918158 -0.01303162 -6.9253045e-05 -0.0012514123 0.05442516 0.00511641
0.04933644 -0.013751622 0.019691076 -0.0058066607 -0.0126121165 -0.05873488 -0.083419144 -0.018453952
-0.014275346 -0.0314085 -0.04380035 0.0065274914 -0.047745608 0.012443641 -0.0017096119 -0.028502434
0.037147686 -0.035323597 0.0032038507 -0.0024099008 0.02913026 -0.029328104 -0.01891698 0.014805412

node_biases f4 [15, 1]
00000000: fd19 a8bc 56b0 30bb 572d 2f3d 5c0e 5e3c
00000010: 9f9d f1bc 2145 223c b5af be3c 2b2d 4abc
00000020: 0cc0 f9bb 18ea 37bd 3063 923a 7bbc 233d
00000030: 9e2f 1abd e198 323d 6c2c 47bc
-0.020520205 -0.0026960573 0.04276785 0.013553228 -0.029494105 0.009904177 0.023277143 -0.01233987
-0.0076217707 -0.044900984 0.0011168476 0.03997467 -0.037643068 0.043602828 -0.012156587

w1s f4 [16, 784, 16]
00000000: 2429 c83b 701b f6bb 5dcb 453c fbf6 20bd
00000010: 98fa 98bc e2fc c2bc c1b0 34bc 26d2 71bd
00000020: 78b6 47bc 579f c0bc 993d 6fbd 5e7a 3abd
00000030: a72f a13b 0e9b e4b9 5148 83ba 4036 21bd
00000040: 7de7 68bc 63d3 61bd 622f f3bc 4575 35bd
00000050: a9fe e0bc 4abf 87bd 8d31 43bd 62bb 27bd
00000060: 8cdd 39bd 88dd 893b 1d67 a5bb d0d4 51bd
00000070: 6335 0dbc 351e cdbc 827c 14bd f9ae 10bc
00000080: a041 f9bb 3b3e 0dbd c3cc e1bb 5593 22bd
00000090: de71 5abd 7c87 85bd 6562 39bd 1298 27bd
000000a0: 50af 05bc c94f 04bd 2c8d abbc a8ca 72bc
000000b0: e07e eabc 7c0f 4c3a c4ba 43bd 8c5d 59bd
000000c0: 453b 4c3c da45 8b3b 2dd7 2ebd 6f03 02bd
000000d0: fab0 ccbb 6712 03bd f933 4ebd e2b0 48bd
000000e0: 0fe3 2cbd c379 4abd b536 6cbd d9be f4bc
000000f0: e7c5 7a3c 3f0c 69bd 7e4e 70bd 8943 89bc
00000100: 4c8d 85bc 0e38 be38 686f f5bc 8149 40bd
00000110: 7bfd c8bc 3697 e2bc 0224 dabc 0884 4dbc
00000120: 972a 65bd cb06 1dbd cbbf 6ebd c4a0 3abd
00000130: df46 0ebc e598 87bc 09ae 143b 1c54 34bd
00000140: 98f0 3dbd 1a0a 623a a69b 94bc 28c4 d0bc
00000150: cf3e d0bc 0f5b 05bd 452b 8aba 9ae8 3dbd
00000160: 62ef 033b edaf 64bd 293d 00bc 0eb6 38bc
00000170: 4654 6ebc 41b4 333b 7864 65bd 118c 24bc
00000180: 4c7a f1ba db20 08bd fe84 ef3a 6307 8bbb
00000190: 8ced 50bd c904 83bd b9d4 5dbd 20fb a1bc
000001a0: a01a 0dbd ff15 95bc e56e 7cbd 9a54 5cbc
000001b0: 22ed 2bbd b3d2 12bd 16c2 d73a 7c1b 4dbd
000001c0: dd95 c5bc 15a4 18bd 589e c6bc 4e1d 2dbc
000001d0: 64f6 f7ba ac45 bdbb 0fa0 19bd 9158 82bd
000001e0: ef31 04bd b53c 55bd e679 ffbc 12f4 6dbc
000001f0: 76d1 893c af7b 81ba b97a aabc f495 4bbd
00000200: 9da4 75bc 0900 18bd 74fe 3abd 3e45 2ebc
00000210: 8012 fabc ee7d cbbc 0d21 1ebd c4b5 14bd
00000220: 1631 22bd 10e8 583b ab0d 49bd 9a7d f6bb
00000230: 7881 c83c 2dd9 e33b 78eb 62bd 00e7 2cbd
00000240: 4928 963c e492 c4bb 502a 333c 4cc0 85bd
00000250: 581a 29bd 74d3 5abd a891 ecbc 92a8 57bd
00000260: 3ee3 e1bc c588 7dbc efc8 1cbd bfac c6bb
00000270: 211c 12bd db8e cfbc 5a4f d4ba 8960 19bc
00000280: 8469 2abd e160 3ebd eff3 0fbd 95d8 fcbc
00000290: e0d6 83bd 4e17 3dbd b9ea 68bd f72b 82bc
000002a0: a6d8 cbbc 03e5 dfbc 141e 89bc 8d44 5b3a
000002b0: 72c8 4abc 85e7 44bd d88d 31bd 002d d1b8
000002c0: 82ea 19bc 48e9 0a3a 95cd 19bd c83a a8bc
000002d0: eedb 00bc b7a7 65bd 247f 86bd 7888 f7bc
000002e0: c55b 55bd ffa8 6bbd 15c4 08bc 870d febc
000002f0: e0f1 0ebd 237b 1bbd d612 4abd 6690 17bd
00000300: b5c8 863c 14a9 b4bc c041 fbbc 25df 80bd
00000310: 384e 55bd d924 5dbd c239 79bd 0170 28bd
00000320: 870b 89bd 75a3 e9bc ca55 8ebc 8051 17bd
00000330: 03a3 b4ba b91b f4ba c17b 9fbc 35fc acbc
00000340: 3729 afbc 4aa0 51bd 4eab 08bd 80bd 2bbd
00000350: c5ba d3bc 906b 83bd 4d86 3bbd 00fb c4bc
00000360: 980d 1ebd d01c d0bc 9d28 6cbc 3a0c abbc
00000370: 9e4f 183c 8e17 d23b 6089 70bd 6fbd f43b
00000380: 07e4 473c 02d0 96bc 0b1e 453c 4f4f a7bc
00000390: d1ec d7bc 3263 f3bb d1df 6bbd 2db2 41bd
000003a0: 9a08 14b8 24ee 25bd 3c15 8fbd 860a 03bc
000003b0: 5d1c dd3a 69f9 9cbb a43d 5ebd 0748 edbc
000003c0: 1cdd 64ba 94e1 52bd 78f0 f8bc e25b 0abd
000003d0: c34c 35bd f6ad 05bc 7e40 d2bc 0959 bebc
000003e0: 31f6 4cbd 2c99 5bbd fd5f 4fbd d3ba cb3a
000003f0: f4e3 dbbc fadf f8bc 140d 6cbd 15a2 4dbd
0.00610842 -0.007510595 0.012072411 -0.03929804 -0.01867418 -0.023802225 -0.01102847 -0.059038304
-0.0121895 -0.02351348 -0.058408353 -0.045526855 0.0049190107 -0.00043603074 -0.0010016059 -0.039358377
-0.014215347 -0.055133235 -0.02968568 -0.04430129 -0.027465181 -0.06628282 -0.047654677 -0.040950187
-0.0453773 0.004207317 -0.0050476925 -0.051228344 -0.008618685 -0.025038818 -0.036251552 -0.008830779
-0.0076067 -0.034483176 -0.0068908646 -0.039691288 -0.05333125 -0.06519982 -0.045259852 -0.04091651
-0.008159474 -0.03230265 -0.02094134 -0.014818825 -0.028624952 0.000778429 -0.047785535 -0.05306773
0.012465303 0.0042502703 -0.042685676 -0.031741556 -0.006246683 -0.03199997 -0.050342534 -0.048996814
-0.042208727 -0.049432527 -0.05766936 -0.02987616 0.015305973 -0.056896444 -0.058668606 -0.016755836
-0.016302727 9.070347e-05 -0.02996035 -0.0469451 -0.024534931 -0.027659994 -0.026628498 -0.012543686
-0.05594882 -0.038336556 -0.058288377 -0.045563474 -0.008683889 -0.016552398 0.002268674 -0.044025525
-0.046372026 0.0008622721 -0.018140625 -0.02548416 -0.025420574 -0.032557543 -0.001054146 -0.046364404
0.0020131697 -0.05583184 -0.007827082 -0.011273874 -0.01454646 0.0027420672 -0.056004018 -0.01004316
-0.0018423288 -0.03323446 0.0018273888 -0.004242824 -0.051007792 -0.06397397 -0.054157946 -0.019773066
-0.03444922 -0.018198965 -0.061629195 -0.013447905 -0.041974194 -0.03584547 0.001646104 -0.05007504
-0.024119312 -0.037265856 -0.024245426 -0.010566069 -0.0018918035 -0.005776128 -0.03750616 -0.06364549
-0.032274183 -0.052059848 -0.031186055 -0.014523523 0.016823512 -0.000987878 -0.020810472 -0.049703553
-0.01499286 -0.03710941 -0.04565282 -0.010636626 -0.0305264 -0.024840321 -0.03860574 -0.036306158
-0.039597593 0.0033097304 -0.0490853 -0.007522297 0.024475798 0.0069533796 -0.05540034 -0.042212486
0.018329756 -0.005998956 0.010935381 -0.06530818 -0.04128489 -0.053424314 -0.028878048 -0.052650996
-0.027574178 -0.015474503 -0.038277563 -0.0060630734 -0.035671357 -0.025336673 -0.0016197965 -0.009361395
-0.041604534 -0.04647911 -0.035144743 -0.030864993 -0.064374685 -0.046164803 -0.056864474 -0.015890105
-0.02488358 -0.027330881 -0.016737975 0.0008364402 -0.012376891 -0.048072357 -0.043348163 -9.9742785e-05
-0.00939429 0.0005299044 -0.037549574 -0.020535842 -0.007864935 -0.05606815 -0.06567219 -0.03021644
-0.05208947 -0.057534214 -0.008347531 -0.03101231 -0.03489864 -0.03795923 -0.04933437 -0.037002943
0.016453126 -0.022053279 -0.030671 -0.062925614 -0.05207655 -0.05399022 -0.060846098 -0.04112244
-0.06691652 -0.028520325 -0.017374892 -0.03694296 -0.0013781491 -0.0018623985 -0.01946819 -0.021116355
-0.021381957 -0.051178254 -0.033366494 -0.04192877 -0.025845895 -0.06417 -0.045782376 -0.024045467
-0.038587183 -0.025404364 -0.01441398 -0.020879854 0.009296326 0.0064114993 -0.05872476 0.0074688713
0.012200362 -0.018409733 0.012031089 -0.02042356 -0.02635804 -0.0074275965 -0.057586495 -0.047289062
-3.529396e-05 -0.04051031 -0.06986472 -0.007998114 0.0016869415 -0.004790474 -0.054258004 -0.02896501
-0.00087304576 -0.05148466 -0.030388102 -0.033779033 -0.04426266 -0.008159151 -0.025665518 -0.023235815
-0.050039474 -0.053612873 -0.05062865 0.0015543349 -0.026842095 -0.030380238 -0.05762966 -0.0502034

b1s f4 [16, 16]
00000000: a5fb 713c f194 e43c 9985 003c e7c9 173a
00000010: c1c1 3a3c 7285 813c b6d5 883d 4faa 113d
00000020: f84b 413d 7747 913b 373e 723d ec5d 2c3d
00000030: 0fca 35bc 569c 413c 7cb2 523d bcd1 693d
00000040: fcaf 9b3d a68d 263c 3637 54bc f38c c63c
00000050: 95c0 033d 9998 5f3d 4cca a43c 34b2 c3ba
00000060: 74a3 813c dcc2 1abb 4290 9abb 966d 323c
00000070: e260 b73c c3d9 883d 38d7 2c3d 4016 1e3b
00000080: 716b 453d e18d 993d d06d 153d 910e 3d3d
00000090: f627 7d3d 54af 003b 155d 7e3c 0cfb 403d
000000a0: dbdb 4f3c 901d 123d 296d a5bb 229a 253d
000000b0: 78ad 373d 9fb1 2f3d f381 973c 7f3f 763c
000000c0: 7ae7 413d 035b 6c3d 1bbe 6ebc a245 363d
000000d0: 289b ba3d a2df 143c 974c d2ba 8ecb 143d
000000e0: f702 9f3d fea6 c5bc 31d6 073c 185a 603d
000000f0: 600e fc3c 1506 053d 59a7 c53c 0ba1 bb3b
00000100: fd6a 843c d666 973c 85f1 883c 3414 153d
00000110: 41e8 0b3d d214 873c da36 453d 8c4b 1c3c
00000120: bf27 063c d89a d83c 1d11 1a3d 1d09 3f3d
00000130: ec25 1c3d 3b29 043d 1d07 083c a533 913c
00000140: 6823 08bc 7739 013d 12f5 3c3d deb1 893c
00000150: 4754 793c a8fa 32bc 1def 52bc 51d8 ab3c
00000160: d997 1d3c f484 c9bc d673 38ba 5357 d03b
00000170: 7f49 273d 34ac 033d 6e18 d43c b262 9e3c
00000180: 49ba fa3c 026a e53b a262 80bc 376f 75bc
00000190: 8971 af3c 8780 dc3b af21 933b f76b e9bb
000001a0: d5f2 493c 4cb9 523d 9352 5e3d b410 c13c
000001b0: 546a 20bb ba90 2a3d cf1d 003d f0ae ba3c
000001c0: 3867 043c 1adc 0d3c a166 c83a d056 303d
000001d0: 588f 5cbc caf6 4bbb e4a3 613c e6ff 843d
000001e0: 0b92 703c fbff 603c 96c4 fc3c bfd7 f83c
000001f0: 6be6 633d 8026 533d cfd9 febc 22fd 08b9
00000200: 1a95 a9ba 5fa8 8a3b ac24 a73c c284 7a3c
00000210: 2edf 1a3d 95cb 843c 2e31 5cbb fce0 5b3c
00000220: 62c7 493d de91 af3c cdcb 393c fcf7 3f3d
00000230: fbbc 143d 4caf ce3c adaf 0fbd 1e19 b63c
00000240: 2e41 46bd 8661 173d 3787 833c c39b 423c
00000250: 054b c93d ef31 803c ce41 7d3d a9f3 a83d
00000260: c38e 503d 97f9 023d aafb 273b 9f89 113d
00000270: 3915 16bb 40a3 c33c 625f 34bb bd34 5e3d
00000280: d277 283d cd90 afba 53b0 d8bb 20a1 1b3d
00000290: dba8 903c d04d f2bc 7ec5 193d b4b2 273d
000002a0: 7f51 a33c ab51 90bc 3b39 103d c6c5 533d
000002b0: 7345 843d 7e9e 043d a1cc 3a3d 6d24 8f3a
000002c0: 9776 4f3d e9c5 a73c b00f 1f3c e33c 4b3d
000002d0: ed1b 2e3d bd0d 723d 494f 743d 6b92 123d
000002e0: 1a17 0d3a 3861 c13c 8ca0 3b3d 57fe fcbc
000002f0: b758 df3c c12c 30bb fad5 4e3c cbff b23c
00000300: 9fcd 613d d559 a6bc 6fa0 3bbc 338b 863d
00000310: 023c 3c3c de09 4fbc 4278 85bc 14a3 543c
00000320: 8f18 2b39 0b59 3c3c f945 623d 363d 703d
00000330: 8884 6d3d 08eb d23c 58a0 3f3d 57c5 d9bc
00000340: cb2e 493d d0f5 363d 8340 403d e3fe 56bc
00000350: db2a 113d c00d ed3c 8672 bb3c 9e6f af3d
00000360: 4312 0a3d 1fff 86bc 9442 453d 63aa f33c
00000370: a3e2 643d a37c e13c d2f1 5d3d 71ce 733d
00000380: 803d de38 4f4d e13c 8e21 c13c 8c85 303d
00000390: 9420 b53b 1cfc ce3c 4883 ba3b 253c a9bb
000003a0: 847e 91bb d362 283d 6446 f63b b321 fd3c
000003b0: 2d8e 123c 1c34 463d 27e8 3bbc 60b1 4b38
000003c0: 993b 163b a616 bebc 736e 5d3d cdd7 5c3d
000003d0: f534 533d 8e7b 933c 60ef 0f3d 832a e53c
000003e0: 07df d43c 0fc2 443d 3b3f b43c 349b 223d
000003f0: 013f d33c afd2 473d 64ae 433d 5d68 803c
0.014769469 0.027903052 0.007844352 0.00057902787 0.011398734 0.015810702 0.06681387 0.03556281
0.04719159 0.004433568 0.059141364 0.04208176 -0.011095538 0.011817059 0.051439747 0.057084784
0.07601926 0.010165608 -0.012952616 0.024237132 0.032166082 0.054588888 0.020115994 -0.0014930428
0.01582501 -0.002361468 -0.004716904 0.010890385 0.022385065 0.0668216 0.042197436 0.0024122149
0.048198167 0.074977644 0.03648168 0.04615647 0.061805688 0.0019635754 0.015525122 0.047114417
0.012686695 0.035672724 -0.0050484133 0.040430196 0.044843167 0.042894002 0.018494582 0.015029787
0.047339894 0.057703983 -0.014571692 0.0445 0.09111625 0.009086521 -0.0016044554 0.036326937
0.077642374 -0.02412748 0.008290813 0.05477342 0.030768573 0.032476503 0.02412765 0.005725985
0.016164297 0.018481653 0.016716728 0.03639622 0.03415704 0.01648942 0.048148014 0.009539496
0.008188187 0.026441023 0.037613977 0.04663955 0.038122103 0.032265883 0.008302477 0.017724821
-0.008309223 0.031548943 0.046132155 0.016808446 0.015217847 -0.010924019 -0.012874392 0.020977171
0.009618723 -0.02459953 -0.0007036304 0.006358066 0.040841576 0.032146648 0.025890555 0.019334171
0.030606406 0.0070011625 -0.015672032 -0.014980129 0.021416442 0.006729189 0.0044900994 -0.007123466
0.012325962 0.051446244 0.054277968 0.023567535 -0.002447744 0.04164193 0.031278428 0.022788495
0.00808125 0.008658433 0.0015289375 0.04305154 -0.01346191 -0.003112244 0.013771985 0.06494121
0.014683257 0.0137329055 0.030855458 0.030376313 0.055639666 0.05155039 -0.031109719 -0.0001306427
-0.0012938112 0.004231497 0.020403229 0.015290441 0.037810497 0.016210357 -0.003359865 0.01342034
0.049262412 0.02143186 0.011340094 0.046867356 0.03631304 0.025230072 -0.035079647 0.022228774
-0.048402004 0.03695824 0.016055686 0.011877957 0.09828762 0.01564881 0.061830334 0.082495995
0.0509174 0.03197631 0.0025632181 0.035531636 -0.0022900833 0.023881555 -0.0027522673 0.054249514
0.041129895 -0.0013394594 -0.0066128164 0.037995458 0.017658642 -0.02957812 0.03754186 0.04094191
0.019936321 -0.017617067 0.03521083 0.051702283 0.06458559 0.032377712 0.045605306 0.001092089
0.050650205 0.020480113 0.00970833 0.049618613 0.0425071 0.059095133 0.059645925 0.035784166
0.00053821655 0.023605928 0.045807406 -0.030882997 0.027263982 -0.0026882144 0.012624258 0.021850487
0.055127736 -0.020306507 -0.011451825 0.06569519 0.011488916 -0.01263663 -0.016292695 0.012978334
0.0001631698 0.011495839 0.055242512 0.058652125 0.05798772 0.025746837 0.046783775 -0.026583357
0.04911689 0.04466802 0.046936523 -0.013122293 0.03544126 0.02893722 0.022881757 0.08566211
0.033708822 -0.016479073 0.048159197 0.029744333 0.0558802 0.027525252 0.054185696 0.05952305
0.0001059724 0.027502684 0.02357557 0.04309611 0.0055275653 0.0252667 0.0056919195 -0.0051646405
-0.0044401307 0.04110987 0.0075157154 0.030899858 0.00894503 0.04838954 -0.011468924 4.8564165e-05
0.0022923707 -0.023204159 0.05406041 0.05391674 0.051564176 0.018003251 0.035140395 0.027974373
0.025985254 0.04803663 0.022002807 0.039698794 0.025786879 0.048784908 0.047773734 0.015674764

w2s f4 [16, 16, 10]
00000000: 418b 19bd af04 ef3c eda7 a5be 2271 1a3e
00000010: e55c 9bbd d37b f5bb 621b 53be bcd1 c5be
00000020: dfcc b7bc 4d18 213e b30b 51be baba eb3d
00000030: 2754 44be 4759 68be b84e 8bbe bec6 a73d
00000040: 421a 8fbd 1292 7c3b 845e 403e 03de bebe
00000050: 56f8 9bbb 4c0d e9bd eac4 b93d 6ed2 86be
00000060: 5808 2ebe b257 92be fa91 23be e0b3 4c3e
00000070: e363 5e3e 906d 15be 75d4 78be d808 c13c
00000080: 357c a3bc 33e6 31be e829 bdbd 9836 b0bc
00000090: 406b 82be 9531 123e 26ab 96be 39d9 82be
000000a0: 85ed 6abe e8af 35be 867a c73d 8533 3c3d
000000b0: c250 68be 508c 0fbd 14fb abbd 507a ffbd
000000c0: c1f7 23be 1d4a 73be 2635 93bd 9629 a53e
000000d0: f235 f23d aae9 86bd 04c5 e3bd ed0a 3f3e
000000e0: d7a1 8d3c 23ce a5be 4ca1 7fbe be7e 87be
000000f0: f340 ae3b fb9e ba3d 7617 923e 3a83 01be
00000100: 9149 63be 1656 3b3e 8248 7ebe 0a8d d4bd
00000110: ffb6 8ebe 7f9a 50be dde7 2abd 1230 06be
00000120: 9051 58bd 49b1 d23d 4084 8fbe e172 90bd
00000130: 3c9d 6cbe 9579 37bd 98f4 d2bb 3abf f7bd
00000140: 906a 763e 3342 a3bb 7359 943e 142c 553e
00000150: 6c9d 233e 5bfd 0c3d 3d5e 5ebe 2d7d 25be
00000160: 856a f43d 2604 b63d 1623 8abd 8b74 5c3c
00000170: edb2 58be 8006 383e 0b0b 9abe 6125 383e
00000180: 975f 41be 906c fbbc 2652 8d3e 36b0 b43c
00000190: 3912 6b3d b877 5ebc f624 35bd 654c 623e
000001a0: a289 38be 9110 793e f21a 96be 9fe1 383e
000001b0: f49e a4bd 877b 1f3e 75b4 78be 79f3 673e
000001c0: 4a4c bfbe 5be8 04bd fc89 eb3d 1560 7c3e
000001d0: 6b8c 7fbe 8572 31be 555d d23c 2cf3 233e
000001e0: 5bec 8dbb f413 bd3d ae58 ebbe b468 5b3d
000001f0: 0154 643e b1f3 5c3e 1e61 023e dbdb 0dbc
00000200: b2b9 2b3d 70f8 c23d 9574 973d a39c d93d
00000210: 8845 723e 1261 5dbe 6fcf 4a3e f62b 79be
00000220: 4245 723c 08a3 273e 9dc0 703c 851a 53bd
00000230: 4107 70be 927a 44be fee6 cb3d 0458 8cbe
00000240: 961b df3d 2e16 6a3d 544f 99bd f70f 59be
00000250: dad1 ec3d bae4 333e 1341 92bc 7d26 3dbe
00000260: cab4 4e3e af4d 693e f0de af3d 6583 42be
00000270: 6f5b 9abe d6c5 5e3e 447d 64bd d67e ac39
00000280: 68fc 3c3e 868e 83be 5b45 d93d 7086 593e
00000290: e157 a7be 1413 373e 00ff dbbd 93ee a3be
000002a0: 22a4 c13c 50ab e4bd 6bc3 92be bf48 333d
000002b0: 1eed 8f3e 4371 503e fa09 33be d0c3 9c3e
000002c0: d85f 45bd f689 3fbd 7059 54be ebc9 7cbe
000002d0: 238c 98be 69ee 84be 2c43 01be bba2 463e
000002e0: 8b44 0b3e 9d9f 39be 3f51 7c3c 2e40 4c3e
000002f0: eb78 54be 1b88 813d 9c9c 84be 04db 483e
00000300: d423 d3bd 3254 da3d c937 e8bc ebe0 9abe
00000310: 6ee3 583e bf0e c3bd a1df 673d bd94 71be
00000320: 3ac6 9dbe d60a 7c3d 4a22 863e 0f5c 21be
00000330: e290 d2bd 39b5 7a3e 7a87 193c 41ed 05be
00000340: 547d 8f3e 2725 9fbe 54c1 443e c654 23be
00000350: 920c db3d 98b7 8a3e ffc4 263d caba 0b3c
00000360: 0080 59bb a038 933d f32c 72be 877b cb3d
00000370: 7b5c 823e 4533 07be 07c0 363d a053 c9bd
00000380: 24f0 52be d202 1fbd 8a42 bfbd 2782 6cbe
00000390: e48f 973c e4a8 3b3c 1c10 6e3e 37e7 96be
000003a0: 2c58 adbc 200b dc3d d088 81be e277 dcbd
000003b0: 2f34 4bbe 2ff2 2ebd a37f 883d bbcc 933c
000003c0: aaf1 c1bd 8576 833e 3345 46be 363f e63c
000003d0: 980b 80be 4010 60be 4d0c 623e 233c 0fbe
000003e0: ff8e 84be 1b95 413e e59d 1abe 87c4 5cbe
000003f0: 42b4 433d c90c 7bbe fdee 8ebe bb19 9ebe
-0.03748632 0.029177038 -0.3235468 0.15082219 -0.075860776 -0.0074915676 -0.20615914 -0.38636577
-0.022436557 0.15731926 -0.20414619 0.11510225 -0.19172727 -0.22690307 -0.27208495 0.08192204
-0.0698743 0.0038539213 0.18786055 -0.37278756 -0.0047598286 -0.11379489 0.090707615 -0.2633242
-0.1699537 -0.2858253 -0.15973654 0.19990492 0.21717791 -0.14592576 -0.24299796 0.023563787
-0.019956687 -0.1737297 -0.092365086 -0.021510407 -0.2547245 0.14276727 -0.2942745 -0.25556353
-0.22942169 -0.17742884 0.09740166 0.04594757 -0.22687057 -0.03504592 -0.08397499 -0.12474501
-0.1601248 -0.2375874 -0.07187872 0.3225829 0.118266955 -0.06587537 -0.11121562 0.18656512
0.017289085 -0.32383832 -0.24963874 -0.26463884 0.005317801 0.09112354 0.28533524 -0.12647715
-0.22196032 0.18294558 -0.24832347 -0.103784636 -0.2787399 -0.20371436 -0.04172503 -0.13104275
-0.05281216 0.10287721 -0.28030586 -0.070531614 -0.23106855 -0.044793684 -0.0064378493 -0.120970204
0.24064088 -0.004982257 0.28974494 0.20817596 0.1597802 0.034421306 -0.21715637 -0.16161032
0.119343795 0.0888751 -0.06744973 0.01345552 -0.21162005 0.1797123 -0.3008655 0.17983009
-0.18884121 -0.030691415 0.27601737 0.02205668 0.057390425 -0.013578348 -0.0442247 0.22099455
-0.18021253 0.24322726 -0.29317433 0.18054818 -0.080381304 0.15574466 -0.24287589 0.22651471
-0.3736289 -0.032448154 0.11500928 0.24646027 -0.24955909 -0.17328842 0.02567927 0.16010731
-0.0043311543 0.092323214 -0.45966095 0.05356665 0.2229767 0.21577336 0.1273236 -0.008658375
0.04192514 0.09520042 0.07395283 0.10625579 0.23659337 -0.2161906 0.19805692 -0.24333176
0.01478702 0.16370785 0.01469436 -0.051538963 -0.23440267 -0.19187382 0.09956168 -0.274109
0.108939335 0.05715006 -0.07485834 -0.21197496 0.115634635 0.17567721 -0.017853295 -0.18471713
0.20186153 0.2278354 0.08587444 -0.18995436 -0.30147883 0.21755156 -0.055783525 0.00032900897
0.1845566 -0.25694674 0.10608932 0.2124269 -0.32684234 0.17878371 -0.10741997 -0.32017955
0.023637835 -0.11165488 -0.28664717 0.043770548 0.28110594 0.20355706 -0.17484275 0.30618143
-0.048187107 -0.04676243 -0.20737243 -0.246864 -0.29794416 -0.25963143 -0.1262328 0.19398014
0.13600366 -0.18127294 0.01540023 0.19946358 -0.20749252 0.06324788 -0.25900733 0.19614798
-0.10309568 0.1066059 -0.028346913 -0.30249724 0.21180508 -0.09524297 0.056609754 -0.23591895
-0.30815297 0.06153377 0.26198035 -0.15757774 -0.102815405 0.24483193 0.009370679 -0.13078786
0.28025305 -0.31083032 0.19214374 -0.15950307 0.10695757 0.27093196 0.040715214 0.008528421
-0.0033187866 0.07188535 -0.2364996 0.0993567 0.25461182 -0.13203152 0.044616725 -0.09830403
-0.20599419 -0.03882105 -0.09338863 -0.23096524 0.01850123 0.011453841 0.23248333 -0.29473278
-0.021160208 0.107443094 -0.25299692 -0.10765053 -0.19844125 -0.042711433 0.0666497 0.018041959
-0.09469922 0.2567636 -0.19362335 0.028106313 -0.25008845 -0.21881199 0.22075005 -0.13987784
-0.25890347 0.18904535 -0.15099294 -0.21559344 0.04777933 -0.24516596 -0.2791671 -0.30879006

b2s f4 [16, 10]
00000000: 2b11 36be e46b 54be c0da 07bd 2e2f 33be
00000010: ccd1 94be 5991 ef3d 6302 87be 7d01 71be
00000020: 386d 65be 37f6 abbd 4dc6 493d dfab 9f3d
00000030: 87cd 95bd ad54 563d 08d1 e3bd c09d 80bd
00000040: 070f 613e 3261 16be 1d4f 11be 33ec 7fbd
00000050: 150a 623e cebe 8c3e fc0a b9bd db23 6b3e
00000060: 8caf 14be a5fb 2f3e 3fef 8dbe d0cf 503d
00000070: 48de 4bbd f7a0 9c3d 06fe a3bd 6f5a b8bd
00000080: e62e 39be f287 ebbd ca16 cebc 6794 09bd
00000090: 1a18 3fbe 867f 503e c5f3 083e 6f8e d4bd
000000a0: 24be 5a3e e03f 80be 1343 3c3e 5330 d3bd
000000b0: ce31 1a3e ebbe 0d3e 53aa af3d 4c50 54be
000000c0: dde8 403d 901f d6bb b482 4dbe 0352 16bc
000000d0: 264d 5bbe 6cd2 ea3d f5f2 a1bd f313 af3c
000000e0: cdad be3d 1889 57be 6e18 06bc 10a5 3dbe
000000f0: e2c6 833e f4d5 773e 8b88 16be 35f2 80be
00000100: 848f 9c3d 3e14 f73d acbd 183e 52d2 30be
00000110: 268f 96bd 8ed7 c73d 5eae e0bd ad11 f0bd
00000120: bc4f 8dbd a5c8 c33c 363b 97b9 aad1 17be
00000130: 20eb bd3d 5376 9b3b a18b 273e 4214 383e
00000140: f68f 14be 4b85 0abe fe02 7f3d 81b9 3e3d
00000150: d8d6 26be 9f70 61bc 56e0 703e 44ee 10bd
00000160: 7e37 adbd 4c6a 49bd a8da 69be a275 a73d
00000170: 5aaf 46be 0f24 593e ffc5 fb3d c6cd 923d
00000180: e346 acbd c469 dfbb 8ba3 013e 463e fcbd
00000190: 8b77 71be cab6 dabc 949f af3d d479 5e3e
000001a0: f9de 9fbd 5a0b 83bd a77e 1bbe b069 a7bb
000001b0: aa86 6a3e 7f16 32bc 753b 15bc 415b 893e
000001c0: d781 9b3d 9a7b e0bd 6231 77be ed30 2ebe
000001d0: 8e30 0abe dd1b f4bd 8b52 35be 8f0e 753d
000001e0: 5808 a0bd 430c 70be d017 c8bd 3715 77bb
000001f0: f9e1 883e 90d6 24be fefa 513e 1be9 7fbe
00000200: 8831 8ebe 3fde 26be 6d18 24be d2c1 1bbe
00000210: 1310 38bc 7ac5 14be 0885 46be 21e5 fe3c
00000220: 1c05 1b3d d229 c1bd 68a0 3fbe 36d2 fcbc
00000230: cc49 2e3d 192e 57be 50a1 21be 5700 133e
00000240: 96c6 d23d 494d 41bd da8e b8bd 953c 493e
00000250: 6ac2 613e ea9e fcbd 76b6 81be 2f91 563e
00000260: e185 f1bd d6e2 6ebe d937 4f3e 30e1 4b3e
00000270: 4cbf f9bd 2688 963e f8c4 183e 9f44 12be
-0.17779987 -0.20744282 -0.0331676 -0.17498466 -0.29066312 0.11697645 -0.26369008 -0.23535724
-0.22404945 -0.08396571 0.04926138 0.07796454 -0.07314592 0.052326847 -0.11123854 -0.062800884
0.21978389 -0.14685515 -0.14190336 -0.062481117 0.22074158 0.27489322 -0.09035298 0.22962897
-0.14520091 0.17185839 -0.27721593 0.050979435 -0.04977253 0.07647889 -0.080074355 -0.09001624
-0.18084297 -0.11500539 -0.025157351 -0.033588793 -0.18661538 0.20361146 0.1337424 -0.103787296
0.21361595 -0.25048733 0.18384962 -0.103119515 0.15058061 0.1384236 0.08577409 -0.20733756
0.047097076 -0.0065345243 -0.2006939 -0.009174827 -0.21416149 0.11465916 -0.079076685 0.021371817
0.093104936 -0.21048391 -0.008184535 -0.18519998 0.25737673 0.2420271 -0.14700525 -0.2518479
0.07644561 0.12064408 0.14916104 -0.17267731 -0.07351522 0.09757911 -0.10970758 -0.117221214
-0.06899974 0.023899386 -0.0002884508 -0.14826074 0.09273362 0.00474433 0.16361858 0.17976478
-0.14508042 -0.1352741 0.062258713 0.04656363 -0.16292894 -0.013759761 0.23523077 -0.035383478
-0.0845785 -0.04917364 -0.22837317 0.081767336 -0.19402829 0.21205162 0.12293624 0.071681544
-0.08411958 -0.006818028 0.12660043 -0.12316565 -0.23580758 -0.026698489 0.08575359 0.21726161
-0.078062005 -0.063986495 -0.15185033 -0.0051090345 0.22902933 -0.010869621 -0.009108414 0.26827434
0.07593124 -0.10961075 -0.24139932 -0.17010851 -0.13495085 -0.11919377 -0.17707269 0.059828337
-0.078140914 -0.23442177 -0.09770167 -0.0037701854 0.26734903 -0.16097474 0.20505902 -0.24991266
-0.27772164 -0.16295718 -0.16024943 -0.15210655 -0.011234301 -0.14528456 -0.19386685 0.031115117
0.03784667 -0.09431805 -0.18713534 -0.030861955 0.042550847 -0.21013679 -0.15784192 0.14355598
0.102917835 -0.047192845 -0.09011622 0.19652016 0.2204682 -0.12334998 -0.2533452 0.2095382
-0.117931135 -0.23328719 0.20236148 0.19910121 -0.1219469 0.29400748 0.14918888 -0.1428399
